model/model.pth (torch, 17216 bytes, 4 tensors)

linear1.weight f4 [256, 11]
0	0xbe0ae310	-0.1356318
1	0xbeeb30e0	-0.45935726
2	0xbe9da247	-0.3078787
3	0x3f0295f2	0.5101005
4	0x3e91690a	0.2840045
5	0x3e653614	0.2238391
6	0xbe991a26	-0.29902762
7	0xbe2eb591	-0.1706145
8	0xbd5369f3	-0.051614713
9	0x3e54941d	0.20759626
10	0xbd82d347	-0.06387954
11	0x3ea29714	0.31755888
12	0x3e671ac0	0.22568798
13	0xbec31fb2	-0.3811012
14	0x3e9950d2	0.29944474
15	0x3ebf6b64	0.3738662
16	0x3e1ed1c5	0.15509708
17	0xbdfd756f	-0.12375914
18	0xbe5a05ed	-0.21291323
19	0xbf10f38e	-0.56621635
20	0x3e4ae503	0.19813924
21	0x3e8701aa	0.26368457
22	0x3d3f0aa9	0.046641026
23	0x3e2e29ac	0.17008084
24	0x3e07618d	0.13220806
25	0xbd75f56f	-0.060048517
26	0xbe58408c	-0.21118373
27	0xbe825cee	-0.25461525
28	0x3b248bb0	0.0025107674
29	0xbe151f5a	-0.14562741
30	0xbe0caa97	-0.1373695
31	0xbdc4a913	-0.09602561
32	0xbd691a74	-0.056909993
33	0xbeb608cb	-0.35553584
34	0x3d4e6cf7	0.050396886
35	0xbea517e9	-0.32244805
36	0xbf051849	-0.5199018
37	0x3f0ad554	0.5423176
38	0x3e4a7cca	0.19774166
39	0xbe1e91f3	-0.15485363
40	0xbf348785	-0.70519286
41	0x3bea519a	0.007150841
42	0x3e03fc02	0.12889102
43	0xbf3eb79c	-0.74498916
44	0xbe29e475	-0.16591056
45	0x3e7d7f55	0.24755605
46	0xbe34175c	-0.17587036
47	0xbe66be9b	-0.22533648
48	0xbe8a3349	-0.26992252
49	0x3e02b6f4	0.12765104
50	0x3e43e120	0.19128847
51	0xbf20e1be	-0.62844455
52	0xbf3443a5	-0.7041572
53	0x3e5c07f7	0.21487413
54	0x3e87a6da	0.26494485
55	0x3e8d2ed1	0.2757478
56	0x3e6ce79d	0.23135228
57	0x3e15403f	0.14575289
58	0xbe347b1c	-0.17625087
59	0x3caede2e	0.021346178
60	0xbe630254	-0.22168857
61	0x3da99f05	0.08282284
62	0x3d90b13b	0.07065054
63	0xbd9e17cd	-0.077193834
64	0xbcf2e8c1	-0.029652001
65	0xbe9ef2fe	-0.31044763
66	0x3eaf0aa0	0.34187794
67	0xbcb62be3	-0.022237724
68	0xbf0036ed	-0.5008381
69	0x3eb0142c	0.3439039
70	0x3e6ba194	0.23010856
71	0xbeef53cf	-0.46743628
72	0xbe11d2d5	-0.14240582
73	0xbf05a281	-0.52201086
74	0xbee7f32d	-0.45302716
75	0x3e997257	0.29970047
76	0xbd37b6ee	-0.04485219
77	0x3f1119b5	0.5667985
78	0xbe77bf79	-0.24194135
79	0x3eb00113	0.3437582
80	0x3ea5b2ec	0.3236307
81	0x3c0737fd	0.008253095
82	0xbeb7c24e	-0.3589043
83	0x3e311789	0.17294134
84	0xbe099dfc	-0.13439173
85	0x3c8e20d8	0.017349645
86	0x3f06bb2e	0.52629364
87	0xbe24e023	-0.16101126
88	0x3c252813	0.010080355
89	0x3df314cd	0.11869202
90	0xbe8606c4	-0.26177037
91	0xbe3a5b62	-0.18198922
92	0xbe97b87e	-0.29632944
93	0x3a92337c	0.001115426
94	0x3e65cecf	0.22442172
95	0xbe939038	-0.28820968
96	0x3ec472d3	0.38368854
97	0xbf0d1dbd	-0.551235
98	0xbe42b75c	-0.19015259
99	0xbec60c31	-0.38681176
100	0xbed1eee9	-0.41002586
101	0x3ef39375	0.47573438
102	0x3d4df91f	0.05028641
103	0x3e3bc6ea	0.18337598
104	0x3d2e0d71	0.042493287
105	0xbdfb4a26	-0.12270002
106	0xbdff6c37	-0.12471812
107	0x3dc9d9d2	0.09855999
108	0x3e364a01	0.17801668
109	0xbcd6cf31	-0.026221843
110	0xbeafde35	-0.34349218
111	0xbe85efc1	-0.2615948
112	0x3ad1ccea	0.0016006504
113	0xbf078eb8	-0.52952147
114	0x3e1996d6	0.14998946
115	0xbe0ef7e2	-0.13961747
116	0x3e9b6c42	0.30356032
117	0x3f03ed54	0.5153401
118	0xbe2e688e	-0.17032072
119	0x3e3d8847	0.18509017
120	0xbeaabab9	-0.33345583
121	0xbe9b63df	-0.30349633
122	0x3f042992	0.5162593
123	0xbdd0fc16	-0.102043316
124	0x3d73b6e7	0.0595006
125	0xbec8ea51	-0.3924127
126	0x3e1ecd6d	0.15508051
127	0x3dac2ba8	0.08406764
128	0x3caef932	0.02135906
129	0xbeff611a	-0.4987877
130	0xbcec35fa	-0.028834332
131	0x3cf9388a	0.030422468
132	0xbdab635e	-0.08368562
133	0x3acf85dc	0.001583274
134	0x3ec0f5cf	0.37687537
135	0xbe3219d4	-0.17392665
136	0xbed2a26a	-0.41139537
137	0x3e9e6c17	0.3094184
138	0x3ee22f14	0.44176543
139	0xbf1be1fb	-0.60891694
140	0xbf1e0756	-0.61729944
141	0x3e41f881	0.18942453
142	0x3d8a52a1	0.067540415
143	0xbd1a3dff	-0.03765678
144	0xbed2a348	-0.411402
145	0x3f01109b	0.5041596
146	0x3c8efedc	0.01745551
147	0x3e4e3247	0.20136367
148	0x3dc4d763	0.09611394
149	0xbe9899af	-0.2980475
150	0xbe40bc3e	-0.18821809
151	0x3ddc6837	0.10762065
152	0xbd86a211	-0.065738805
153	0xbe46244a	-0.1934978
154	0xbe0e86ca	-0.13918605
155	0xbe28b46d	-0.16475077
156	0xbeb51b7f	-0.3537254
157	0x3ebf7d0a	0.37400085
158	0xbea6b0b1	-0.3255668
159	0xbe8d4d5e	-0.2759809
160	0x3ebe870d	0.3721241
161	0xbecce2d2	-0.400168
162	0x3cbe6054	0.023239292
163	0xbe6f8bda	-0.23393193
164	0x3db04433	0.08606758
165	0xbe468c41	-0.1938944
166	0x3ec4b22d	0.38417187
167	0xbebbf0e5	-0.36707225
168	0xbe871634	-0.26384127
169	0xbdfce4dc	-0.12348339
170	0x3d8f863f	0.07008027
171	0xbe4c3c92	-0.1994498
172	0xbcfe3e1a	-0.031035472
173	0xbe2f63a1	-0.17127849
174	0xbe300d8f	-0.17192672
175	0x3da95335	0.082678236
176	0xbe3844ee	-0.17995045
177	0xbef09a34	-0.46992648
178	0xbe903980	-0.2816887
179	0x3e8efcff	0.27927396
180	0x3efe01dc	0.49610794
181	0xbb3067cd	-0.002691734
182	0x3dcfa027	0.101379685
183	0xbe9ac54a	-0.30228645
184	0xbe8e2193	-0.2775999
185	0xbd6b2e9f	-0.05741751
186	0xbd55b31a	-0.052172758
187	0x3e37bda2	0.17943433
188	0x3eb57836	0.35443276
189	0x3e75ba1b	0.23996775
190	0xbe3d7c8b	-0.1850454
191	0xbe2d0e53	-0.16899996
192	0xbdcd6425	-0.10028867
193	0xbdefdb1a	-0.11711712
194	0x3ee28feb	0.44250426
195	0x3ebaac0c	0.36459386
196	0x3ea645f1	0.32475236
197	0x3ec199ea	0.3781274
198	0xbe538cd6	-0.20659193
199	0x3f1aec4a	0.605168
200	0xbe70c27a	-0.23511687
201	0x3e4ff438	0.20308006
202	0xbe36883f	-0.17825411
203	0x3e8b2355	0.27175394
204	0x3c15a982	0.009134652
205	0x3e40e40e	0.18836996
206	0xbe33ee50	-0.17571378
207	0xbd9fbfbf	-0.078002445
208	0x3ea107cf	0.3145127
209	0x3e51de31	0.20494916
210	0xbdac8f54	-0.08425775
211	0x3e76692c	0.24063557
212	0x3dc952a0	0.098302126
213	0x3dbb9cb6	0.091607496
214	0xbd2c8b82	-0.042125233
215	0x3cecfb5c	0.028928451
216	0x3ec549b9	0.38532808
217	0x3e601be4	0.2188564
218	0xbe275ba2	-0.16343549
219	0xbe0ebb41	-0.13938619
220	0xbd18cbe5	-0.037303824
221	0xbf0452bd	-0.5168875
222	0x3e6665a8	0.22499716
223	0xbe85ede4	-0.2615806
224	0xbdd450f4	-0.10367003
225	0xbe33c545	-0.17555721
226	0xbe5ad265	-0.21369322
227	0x3db96061	0.09051586
228	0xbd71fd20	-0.05907929
229	0xbe9cc5a7	-0.30619547
230	0xbe3e9844	-0.18612772
231	0xbd23d4c5	-0.039997835
232	0xbe23dd21	-0.16002323
233	0xbedfe367	-0.43728182
234	0x3da76540	0.08173609
235	0xbe67ace5	-0.22624548
236	0xbe75cbed	-0.24003573
237	0x3ec02d77	0.37534687
238	0xbe80c544	-0.25150502
239	0x3ec7dda0	0.39036274
240	0xbee45e66	-0.4460327
241	0xbe59c6dc	-0.21267265
242	0x3cfb0043	0.030639773
243	0x3e9bf5be	0.30460924
244	0x3ec6b230	0.3880782
245	0xbe00114d	-0.125066
246	0xbe606e20	-0.2191701
247	0xbe9604f8	-0.29300666
248	0xbe89968c	-0.2687267
249	0x3cbf7c30	0.023374647
250	0x3eadfc31	0.3398147
251	0x3e613229	0.21991791
252	0x3e5a41b6	0.21314129
253	0xbe92c79c	-0.28667915
254	0x3efc7ab2	0.4931236
255	0xbc527673	-0.012845623

linear1.bias f4 [256]
0	0x3eaeb30e	0.34120983
1	0x3d2368aa	0.039894737
2	0xbd8a6bbe	-0.067588314
3	0x3eae5c65	0.34054866
4	0x3ef29e49	0.47386387
5	0xbd2b1b46	-0.041774057
6	0x3e2c2649	0.1681148
7	0xbe3b0ccc	-0.182666
8	0xbdcbb7c1	-0.09947158
9	0x3eb92b65	0.3616592
10	0x3cef14c9	0.029184716
11	0x3eac554d	0.3365883
12	0x3dad754e	0.0846964
13	0x3e916e4f	0.2840447
14	0x3df51732	0.11967315
15	0xbe5f6374	-0.21815282
16	0x3f9c3779	1.2204429
17	0xbe8e687b	-0.27814087
18	0xbdee2035	-0.11627237
19	0xbda67fc3	-0.08129837
20	0xbdc0e76d	-0.09419141
21	0xbe2c65e3	-0.16835742
22	0xbe09fb79	-0.13474835
23	0x3c69000c	0.014221203
24	0xbe21075d	-0.15725465
25	0x3d8f355c	0.06992599
26	0xbe0b5024	-0.1360479
27	0xbe452766	-0.1925331
28	0xbeb005bb	-0.34379372
29	0xbe50121b	-0.20319407
30	0x3dbfcc33	0.0936512
31	0x3cba3de5	0.022734592
32	0xbe2049ef	-0.15653203
33	0x3e5cc251	0.21558501
34	0xbe5a0251	-0.21289946
35	0xbe2efd44	-0.170888
36	0x3e732e03	0.23748021
37	0xbe6d6cc0	-0.23186016
38	0xbd2e93b9	-0.042621348
39	0x3dca5ee4	0.0988138
40	0xbe594a7a	-0.21219817
41	0xbe24a523	-0.1607862
42	0x3dc87e66	0.097897336
43	0xbd4e2fe4	-0.05033864
44	0x3d58e602	0.052953728
45	0xbe5cd9c3	-0.21567445
46	0xbdf60bfb	-0.12014004
47	0x3d36b55d	0.044606555
48	0xbd902493	-0.07038226
49	0xbddc8b44	-0.1076875
50	0xbddc3c7a	-0.107537225
51	0x3f0c673e	0.54845035
52	0xbc75e850	-0.015009001
53	0x3e9c2297	0.3049514
54	0x3f102dfb	0.5632016
55	0xbd8e89cf	-0.06959879
56	0xbe971a75	-0.29512373
57	0xbe7e0ea7	-0.24810277
58	0xbcd65a3b	-0.026166072
59	0x3f216165	0.6303924
60	0xbd7aa931	-0.06119651
61	0x3e24b85c	0.16085953
62	0x3e8cce64	0.27501214
63	0xbdfcb988	-0.12340075
64	0xbd0bd6e0	-0.034140468
65	0xbebe3ff0	-0.37158155
66	0xbe4c3325	-0.19941385
67	0x3dd51b20	0.10405564
68	0xbe34c14c	-0.17651862
69	0x3d5e7db4	0.0543191
70	0xbd84d5e0	-0.06486106
71	0x3ce7c2ad	0.02829107
72	0xbe537397	-0.20649563
73	0xbeaa481b	-0.33258137
74	0xbe8b8a0b	-0.27253756
75	0x3e8cfafb	0.27535233
76	0x3d168e1e	0.036756627
77	0x3dce725c	0.10080406
78	0xbe320691	-0.17385317
79	0x3e8c72dc	0.2743138
80	0xbdfec443	-0.12439778
81	0xbd450441	-0.04809976
82	0xbecfe1f1	-0.40602067
83	0xbdda3138	-0.10653919
84	0x3d3ac141	0.045594458
85	0x3ecea6cc	0.4036163
86	0xbe93927a	-0.2882269
87	0xbe58ab57	-0.21159111
88	0x3d2b6cfc	0.041851982
89	0x3d447a1c	0.047968015
90	0xbd0e5ca6	-0.034756325
91	0xbe13a8ca	-0.14419857
92	0x3e142dda	0.14470616
93	0x3ea30a5c	0.3184384
94	0xbe33cb38	-0.1755799
95	0xbce7dc76	-0.028303366
96	0xbdd9c335	-0.10632936
97	0x3d9accc5	0.07558588
98	0xbde1bd43	-0.11022427
99	0x3e6c1048	0.23053086
100	0xbe014b4a	-0.12626377
101	0xbe52dfb4	-0.20593148
102	0xbe606274	-0.21912557
103	0xbe026166	-0.12732467
104	0x3d4cf474	0.050037816
105	0xbdac6033	-0.08416786
106	0x3d254dad	0.04035728
107	0xbdeb159a	-0.114787295
108	0xbe6cb5dd	-0.2311625
109	0x3e149876	0.14511284
110	0xbe4a0eab	-0.19732158
111	0xbe8e5801	-0.27801517
112	0x3d4d3fdd	0.050109733
113	0xbe2e148b	-0.17000024
114	0xbe6dcbdd	-0.23222299
115	0x3e0a1b1a	0.13486901
116	0xbe1329dd	-0.14371438
117	0x3e82bcd0	0.25534678
118	0x3eb78ac9	0.35848072
119	0x3d89dc14	0.0673143
120	0xbe39c9f3	-0.18143444
121	0x3c4c3d9d	0.012465862
122	0x3da75136	0.08169787
123	0xbe28b5ed	-0.16475649
124	0x3ed600bb	0.41797432
125	0xbe3b1ca3	-0.18272643
126	0x3ef30bc7	0.47469923
127	0x3e50b8a8	0.20382941
128	0xbcac3e35	-0.021025756
129	0xbe9bafe0	-0.3040762
130	0xbe909365	-0.28237453
131	0x3eac75eb	0.33683714
132	0xbe0bc181	-0.13648035
133	0xbe0ef2f3	-0.13959865
134	0x3d1111fb	0.035417538
135	0xbe936c4f	-0.2879357
136	0x3d07433f	0.033023115
137	0xbdfbcbbb	-0.12294718
138	0x3b427294	0.0029670345
139	0xbe6360bd	-0.22204871
140	0xbdca65e3	-0.098827146
141	0x3d6ee438	0.058323115
142	0xbe91a580	-0.2844658
143	0xbe0e1c48	-0.13877976
144	0xbd8f160e	-0.069866285
145	0xbe003061	-0.12518455
146	0xbe369f31	-0.17834164
147	0xbe303bf5	-0.17210372
148	0xbe55d329	-0.20881332
149	0xbe6a32c4	-0.22870928
150	0xbe1eb851	-0.15499999
151	0x3d1be3b1	0.03805894
152	0xbdbad0fe	-0.09121893
153	0xbd2cd3fd	-0.042194355
154	0x3e70960f	0.23494743
155	0xbe307ec1	-0.17235853
156	0xbe3756cb	-0.17904203
157	0xbe56fd0e	-0.2099497
158	0xbdda2f9d	-0.10653613
159	0x3dd90131	0.1059593
160	0x3e91358b	0.28361163
161	0xbe950887	-0.29108068
162	0xbdec4ae1	-0.115377195
163	0x3b7d8ec4	0.0038689831
164	0x3d892ab5	0.06697599
165	0xbc24df5e	-0.0100630205
166	0xbeaab50f	-0.33341262
167	0xbe7eab26	-0.24869975
168	0xbd077b0a	-0.033076324
169	0x3e1c1410	0.15242028
170	0xbec6181b	-0.38690266
171	0x3dc29ba9	0.09502346
172	0xbecc30d7	-0.39881012
173	0x3c67a39d	0.01413813
174	0xbd7375a7	-0.059438374
175	0xbdbbabf6	-0.09163658
176	0x3e52edf8	0.2059859
177	0xbdf46f05	-0.11935238
178	0x3eb55f59	0.35424307
179	0x3eba29fc	0.36360157
180	0x3e902d14	0.28159392
181	0xbe7e95ed	-0.2486188
182	0xbe57964e	-0.2105343
183	0xbe66f19d	-0.22553106
184	0xbdc3e92a	-0.09565957
185	0xbe13d985	-0.14438446
186	0x3eaf6ff4	0.342651
187	0x3e498541	0.19679739
188	0xbe90d4a0	-0.2828722
189	0xbe615eb8	-0.22008789
190	0x3f4be40b	0.7964484
191	0x3e4ee191	0.20203234
192	0xbe746450	-0.23866391
193	0x3efdb6f0	0.49553633
194	0xbe94bdc0	-0.29051018
195	0xbec52f5c	-0.38512695
196	0x3e886635	0.26640478
197	0xbe885f80	-0.2663536
198	0xbdaacba3	-0.08339622
199	0x3e628f01	0.22124864
200	0xbe24de7c	-0.16100496
201	0x3e86c346	0.26320857
202	0x3d38d4c7	0.045124795
203	0xbec138dd	-0.37738696
204	0x3e2792c3	0.16364579
205	0xbc832289	-0.016007679
206	0xbea4e0c2	-0.32202727
207	0xbe9b8589	-0.30375317
208	0xbd76b9b1	-0.060235683
209	0x3e5a37fd	0.2131042
210	0xbe658a7e	-0.22416112
211	0x3d7cf0ee	0.061753206
212	0x3ea66dda	0.32505685
213	0x3e8f3072	0.27966648
214	0x3c2b8ae6	0.010470128
215	0xbdb4d18b	-0.0882903
216	0x3ded5cab	0.11589941
217	0x3be501fb	0.0069887615
218	0xbcef2389	-0.02919175
219	0xbdc610ab	-0.09671148
220	0xbeaeb088	-0.34119058
221	0xbda86484	-0.08222297
222	0xbde90a9a	-0.11378975
223	0xbe06123d	-0.13092895
224	0xbe5960da	-0.21228352
225	0xbda29bb5	-0.07939855
226	0xbe3ba493	-0.18324499
227	0xbecdaaaf	-0.40169284
228	0xbe69ddd5	-0.22838528
229	0xbe98dae0	-0.29854488
230	0xbe234de9	-0.15947689
231	0xbeaed5ea	-0.34147578
232	0xbea8ce6c	-0.32969987
233	0xbdaca704	-0.08430293
234	0xbe217f66	-0.15771255
235	0xbd5eff34	-0.0544426
236	0x3d12bfb9	0.035827372
237	0x3dd532d6	0.10410087
238	0xbe2bee93	-0.16790228
239	0xbe064396	-0.1311172
240	0x3ec7bd26	0.39011496
241	0x3de5146c	0.11185536
242	0x3e6ed358	0.23322809
243	0xbbf5d3dc	-0.0075020622
244	0xbdf4a7f1	-0.11946095
245	0x3b796a0f	0.00380576
246	0xbdde1864	-0.10844496
247	0x3e3bda3f	0.18344973
248	0x3c20d4c3	0.009816351
249	0xbd84a59c	-0.064769
250	0xba3a83e7	-0.0007114992
251	0x3e27d0e5	0.1638828
252	0xbe5c8cdc	-0.21538109
253	0xbe9f38d1	-0.31098035
254	0xbe1ae7aa	-0.15127435
255	0xbe8678bb	-0.26263985

linear2.weight f4 [3, 256]
0	0x3e6a5689	0.22884573
1	0x3d9c132f	0.076208465
2	0x3b0c99af	0.0021453907
3	0x3eea62c8	0.4577849
4	0x3f0b46e2	0.54405034
5	0xbd365092	-0.04451043
6	0xbe9a8ff8	-0.30187964
7	0xbec78b05	-0.3897325
8	0xbeb2378b	-0.34808
9	0x3e3d4425	0.18483026
10	0xbf11f334	-0.57011724
11	0x3e60270c	0.21889895
12	0x3f1088f3	0.5645897
13	0x3e14f3a9	0.14546074
14	0x3dbc06da	0.09180994
15	0xbcd583d7	-0.026063843
16	0x3ec4a482	0.3840676
17	0xbe529a5c	-0.20566696
18	0x3d61e56f	0.055150446
19	0xbc8d8a9d	-0.01727801
20	0x3bf0e379	0.0073513356
21	0xbe20d102	-0.1570473
22	0xbd47b325	-0.04875483
23	0x3ee99be7	0.45626757
24	0xbdc010cf	-0.09378206
25	0x3e855a17	0.26045296
26	0xbe578d6b	-0.2105004
27	0xbcb66621	-0.022265496
28	0xbe5e7e39	-0.21727838
29	0xbf0f5ae0	-0.5599804
30	0x3e350399	0.17677154
31	0xbbc9eed4	-0.0061625037
32	0x3d99002c	0.07470736
33	0x3e30e058	0.1727308
34	0xbed1eb5e	-0.40999883
35	0xbe5017de	-0.20321605
36	0x3ea19db6	0.31565636
37	0x3cb8b638	0.022547826
38	0xbd2659b9	-0.04061291
39	0x3e08032f	0.13282464
40	0xbab91765	-0.0014121352
41	0xbc33d104	-0.010975126
42	0x3e015383	0.12629513
43	0xbe1047a4	-0.14089829
44	0xbdb3ee0f	-0.087856404
45	0xbeb71b5a	-0.35763055
46	0xbf03b51a	-0.51448214
47	0xbd011d8a	-0.03152231
48	0xbd4f765d	-0.05064999
49	0xbeaef94b	-0.3417457
50	0xbedc441c	-0.43020713
51	0x3e93c6ba	0.28862554
52	0xbf60005f	-0.87500566
53	0xbc3c48ce	-0.011491967
54	0x3e3b1511	0.18269755
55	0xbddcc40d	-0.10779581
56	0xbe0d5887	-0.13803302
57	0x3e280301	0.16407396
58	0xbc9b11a3	-0.018929308
59	0x3ead7d29	0.33884552
60	0xbe907ff9	-0.28222635
61	0x3e86c4c7	0.26322004
62	0x3e450a72	0.19242266
63	0xbeb19819	-0.34686354
64	0xbee8b9e5	-0.45454326
65	0xbe8aeb45	-0.2713262
66	0xbec14d38	-0.37754226
67	0x3e933289	0.28749493
68	0xbe3e098a	-0.18558326
69	0x3c82ca7b	0.01596569
70	0xbeb5b7ad	-0.35491696
71	0x3e48eaac	0.1962077
72	0xbd8ea0d6	-0.06964271
73	0xbe571f3f	-0.21008013
74	0xbeabc701	-0.33550265
75	0x3ebdf84f	0.37103507
76	0x3e2240ea	0.15845075
77	0x3e9542e8	0.29152608
78	0xbf1203a1	-0.5703679
79	0x3e5f506a	0.2180802
80	0xbd8eb4ca	-0.069680765
81	0x3e225d37	0.15855871
82	0xbe952121	-0.29126838
83	0x3e0a26bd	0.1349134
84	0x3e2dc56f	0.16969846
85	0x3eaeacfe	0.34116358
86	0x3d67d3e0	0.056598544
87	0xbeecaa6d	-0.46223775
88	0x3c9674c2	0.018366221
89	0x3e36f657	0.17867409
90	0xba3084e1	-0.00067336677
91	0xbea52673	-0.32255897
92	0xbe73adda	-0.23796788
93	0x3ea51629	0.3224347
94	0xbdb57b73	-0.08861437
95	0x3ea7bf27	0.32763025
96	0xbf2e10b5	-0.6799424
97	0xbddf9e64	-0.109188825
98	0xbe485ef1	-0.19567467
99	0x3e22d2cb	0.15900724
100	0xbb01bf86	-0.0019797995
101	0xbd9832bb	-0.07431551
102	0xbd34a613	-0.044103693
103	0xbd90aae2	-0.07063843
104	0xbded4056	-0.11584537
105	0xbecdce6b	-0.40196547
106	0x3baa2dcd	0.005193448
107	0x3e34b224	0.1764608
108	0xbc71098d	-0.01471175
109	0x3c9baead	0.01900419
110	0x3e903f0a	0.28173095
111	0x3d302b59	0.04301009
112	0xbd7991d5	-0.060930092
113	0xbefc4ab8	-0.49275756
114	0xbdc553dc	-0.096351355
115	0x3da6dc64	0.08147505
116	0x3dfc5d5a	0.12322493
117	0x3ed644e4	0.41849434
118	0x3eb3aeb1	0.35094216
119	0x3ed843a0	0.42239094
120	0xbe7003e9	-0.23438992
121	0x39813df1	0.00024650947
122	0x3e74a395	0.23890527
123	0xbba48a6e	-0.005021385
124	0x3eaf3a34	0.34224093
125	0xbddd7c7b	-0.108147584
126	0x3e91cc56	0.28476208
127	0x3e02bf1d	0.12768216
128	0xbe7f3c5f	-0.24925373
129	0xbcd0e7d0	-0.025501162
130	0x3ce1461c	0.027499251
131	0x3e6c43b1	0.23072697
132	0xbd243ebd	-0.040098894
133	0xbf3ab2cc	-0.7292907
134	0x3d10af77	0.035323586
135	0xbdee30c7	-0.11630397
136	0xbedc46c3	-0.43022737
137	0xbdad4a06	-0.084613845
138	0xbcaf77f8	-0.02141951
139	0xbdbd0e54	-0.092312485
140	0xbd090943	-0.0334561
141	0x3dfe7bf8	0.12425989
142	0xbe9abb57	-0.30221054
143	0xbe389a90	-0.18027711
144	0xbe434091	-0.19067599
145	0x3c8d39df	0.01723951
146	0xbda3df89	-0.0800162
147	0xbefcea90	-0.49397707
148	0xbda32b19	-0.079672046
149	0xbe0ece9c	-0.13946003
150	0xbca5502d	-0.020179832
151	0x3c9afcb2	0.018919323
152	0xbe102135	-0.14075167
153	0xbeac9d65	-0.33713832
154	0x3e04ddb5	0.129752
155	0xbe523ff6	-0.20532212
156	0xbe2f8c72	-0.1714342
157	0x3d4a01dd	0.049318183
158	0xbe986ee1	-0.29772094
159	0x3e51247c	0.20424074
160	0x3e187f76	0.14892372
161	0xbe1a4b82	-0.15067866
162	0xbca1e5d0	-0.019762903
163	0xbf3b9ab2	-0.7328292
164	0xbea78924	-0.32721817
165	0x3db8196e	0.08989225
166	0x3c4a45b1	0.012345717
167	0xbe6a850b	-0.22902314
168	0x3e3de601	0.18544771
169	0x3e9eadcf	0.3099198
170	0xbc539ba8	-0.012915529
171	0x3ca5cc73	0.02023909
172	0xbacdf6be	-0.0015713794
173	0xbc9777ed	-0.018489802
174	0xbe79c4e7	-0.24391519
175	0xbe4364d8	-0.19081438
176	0x3e9b3fa2	0.30321985
177	0xbddc5470	-0.10758293
178	0x3eb5660d	0.3542942
179	0x3e2434e4	0.16035801
180	0x3e158c24	0.1460424
181	0xbe585a5e	-0.21128222
182	0xbdef066e	-0.11671148
183	0xbe44a6f1	-0.19204308
184	0xbed3ac6e	-0.4134249
185	0xbd5966d5	-0.053076584
186	0x3e34aaeb	0.17643325
187	0x3e8c198a	0.27363235
188	0xbdfd73bd	-0.12375591
189	0xbe2810ee	-0.16412708
190	0x3e9b4a5d	0.30330172
191	0x3e26a896	0.16275248
192	0xbd20547f	-0.03914308
193	0x3e855ed1	0.26048902
194	0x3c73839b	0.01486292
195	0xbd9a0df4	-0.075221926
196	0x3ed87de7	0.42283556
197	0xbe1f8fc1	-0.15582182
198	0xbdb94740	-0.09046793
199	0x3e40aad0	0.1881516
200	0xbdb3ae99	-0.08773536
201	0x3f19b7df	0.6004619
202	0xbe986098	-0.29761195
203	0x3b8acd15	0.0042358735
204	0x3f000119	0.50001675
205	0xbe92d879	-0.2868078
206	0xbd38d648	-0.04512623
207	0x3b8e5f20	0.004344836
208	0x3e2f3d8f	0.17113326
209	0x3eba5f1d	0.3640069
210	0xbdb6e4d9	-0.08930368
211	0xbe300546	-0.17189512
212	0x3eb762a3	0.3581744
213	0x3deadcda	0.11467905
214	0x3dacd51e	0.084390864
215	0xbf18b9a6	-0.5965828
216	0xbe9f8cab	-0.3116201
217	0xbdb2d9d1	-0.087329514
218	0x3e2ec5d3	0.17067651
219	0x3d3f7c1c	0.04674922
220	0xbe670163	-0.22559123
221	0xbda0788e	-0.07835494
222	0xbd32f304	-0.04368879
223	0xbe75e161	-0.24011756
224	0x3e6b8a9c	0.23002094
225	0xbed868b4	-0.42267382
226	0xbb9d1b72	-0.0047945315
227	0xbe73887a	-0.2378253
228	0xbed19374	-0.4093281
229	0xbd5a694e	-0.053323083
230	0xbe05e612	-0.13076046
231	0xbca11ef3	-0.019668078
232	0xbe317db7	-0.17333113
233	0xbed97374	-0.42470896
234	0xbe51e2b3	-0.20496635
235	0xbef07d46	-0.46970576
236	0x3da7535c	0.081701964
237	0x3ee46f05	0.4461595
238	0x3dd73529	0.10508186
239	0x3d5edbf4	0.054408982
240	0x3dc0839c	0.094001025
241	0x3d69a4ad	0.057041813
242	0x3e2a6264	0.16639096
243	0x3d2c05d3	0.041997742
244	0xbef3ce79	-0.47618464
245	0x3d6679a5	0.056268353
246	0x3d692bc1	0.056926493
247	0x3de94215	0.11389557
248	0x3ed0c5ef	0.4077601
249	0xbf0f087b	-0.55872315
250	0x3eb00688	0.34379983
251	0x3d818f76	0.06326191
252	0xbe1acc86	-0.15117082
253	0xbec428c4	-0.38312352
254	0xbe325508	-0.1741525
255	0x3d9f787a	0.07786651

linear2.bias f4 [3]
0	0x3ea35baa	0.31905872
1	0x3d6d3595	0.057912428
2	0x3c100f39	0.008792692
